models/CNN_1_RGB/CNN_1_RGB.pth (torch, 665095 bytes, 10 tensors)

weight f4 [10, 3, 7, 7]
0.009451079 -0.017195938 0.0017998609 -0.0684261 -0.068562545 0.019213395 0.034023695 0.00742167
0.07395127 0.043104216 0.07812257 0.07192905 -0.023692042 -0.08919207 0.05205232 -0.023183456
0.009855259 0.064629614 -0.0636054 -0.07666729 -0.063385986 -0.023162708 -0.01781697 0.06653316
0.076052785 0.006866774 -0.049693335 -0.01134807 -0.005354259 -0.024533551 -0.010445088 -0.06862707
0.07683999 -0.022663921 0.05920364 0.089668185 -0.07160014 -0.062471297 0.04899217 -0.03338282
-0.005033126 0.059128653 0.02779719 -0.03971429 -0.037134506 0.04082727 0.010944598 0.010424377
-0.057429295 0.040312275 -0.048782248 -0.016602842 -0.028423237 0.009918936 -0.03188348 -0.004244886
-0.03811551 -0.053333867 -0.05382779 -0.020140227 -0.014940844 0.03963513 0.063954055 0.10792678
0.013975078 -0.027657894 -0.044545 0.038716897 0.04652394 0.054044392 0.09573158 -0.024655942
0.06816714 -0.05727254 -0.0435435 0.039367873 0.026231034 0.07410975 0.06476865 0.0729158
0.012787628 0.016493684 -0.0774075 -0.021010304 0.10024663 0.05031447 -0.019951079 -0.005236683
0.059154946 -0.053424414 -0.075200245 -0.017514044 -0.022273166 -0.05652077 0.058678146 -0.010953854
-0.08999847 -0.03906807 -0.04269391 0.07777799 -0.0087426305 0.068566695 -0.00964972 -0.02504682
-0.06988186 0.01905827 0.0699292 -0.049548946 0.03201416 0.042400833 -0.0346268 -0.08108171
0.06660781 -0.044942953 -0.054755457 0.0014633057 -0.05607347 -0.039416622 0.019989355 0.08430903
-0.037044425 0.02202288 0.00038924377 0.062305108 -0.058457658 -0.042539913 -0.0070110536 -0.02590908
0.07730442 0.011853023 0.042861246 -0.023476647 -0.073327266 0.090434566 -0.069516756 -0.08020607
0.028149227 -0.07763311 -0.08380886 0.06281487 0.0613672 -0.020133771 0.02004291 0.058150776
-0.052880153 -0.07975717 0.026349816 0.040175613 -0.021148195 -0.027395496 0.09477382 0.061040588
-0.045208193 -0.001589109 0.02545411 -0.0023051787 0.04485691 0.06673802 0.034238003 0.009486669
0.008854081 0.061560586 0.06796599 0.033586618 0.057229232 -0.058841333 -0.049386654 -0.09129111
0.055447366 -0.014115667 -0.025952497 0.057556063 0.0026255294 -0.050761197 -0.09906251 0.111717284
0.04655242 -0.009150808 0.0510751 0.048010692 0.034753934 -0.012041998 -0.01686809 0.08302182
0.03872163 0.09894812 0.079401314 0.0072642458 0.03838039 0.03525898 0.05171526 0.05481598
-0.05423858 0.012283939 0.07053697 -0.057673663 0.014839394 0.038930647 -0.042639136 -0.06651164
0.06874881 -0.07909378 -0.054320823 0.001363523 0.03632115 0.09029102 -0.024006147 -0.009077569
0.042232756 -0.09036368 -0.034429807 0.07796441 0.018587425 0.062163852 0.00051881437 -0.08216847
-0.02482231 0.02219008 0.022016935 0.052852757 -0.064200476 0.074481174 -0.017934425 -0.08048954
0.05655302 0.04152641 -0.022676716 -0.021640427 -0.01668273 -0.04890832 -0.058234163 -0.00035220216
-0.007773403 -0.039503437 -0.04563161 0.031924132 0.020246368 -0.07367129 0.07502001 0.098781794
0.032780405 -0.06315669 0.057317898 -0.07179095 -0.076778136 0.057876058 0.0119375335 0.07897089
-0.037617374 0.0090519665 0.034373693 -0.10012878 -0.03834301 -0.038496025 0.08677635 -0.040249098
00000000: b3d8 1a3c 7fde 8cbc 4fe9 eb3a fc22 8cbd
00000010: 856a 8cbd 6965 9d3c 6e5c 0b3d 7b31 f33b
00000020: c373 973d 0c8e 303d bafe 9f3d 8a4f 933d
00000030: d015 c2bc 55aa b6bd d034 553d 3beb bdbc
00000040: f477 213c 885c 843d 8c43 82bd bd03 9dbd
00000050: 83d0 81bd b8bf bdbc e5f4 91bc 8a42 883d
00000060: 90c1 9b3d ad02 e13b 3d8b 4bbd 41ed 39bc
00000070: c872 afbb 96fa c8bc e021 2bbc 598c 8cbd
00000080: 495e 9d3d b0a9 b9bc 847f 723d f4a3 b73d
00000090: 18a3 92bd e7e1 7fbd 03ac 483d 6dbc 08bd
000000a0: ecec a4bb e330 723d efb6 e33c 74ab 22bd
000000b0: 5a1a 18bd 7f3a 273d f950 333c 02cb 2a3c
000000c0: fb3a 6bbd 7c1e 253d e5cf 47bd af02 88bc
000000d0: d9d7 e8bc 0883 223c 4098 02bd af18 8bbb
000000e0: 021f 1cbd 9d74 5abd 877a 5cbd 1efd a4bc
000000f0: 71ca 74bc 7258 223d 58fa 823d b708 dd3d
00000100: baf7 643c cf92 e2bc d174 36bd 9c95 1e3d
00000110: e38f 3e3d a75d 5d3d eb0e c43d 42fb c9bc
00000120: 379b 8b3d 9c96 6abd ab5a 32bd 3540 213d
00000130: 77e2 d63c dac6 973d 6da5 843d e154 953d
00000140: 3383 513c c31d 873c d387 9ebd cd1d acbc
00000150: 1b4e cd3d 8c16 4e3d 7270 a3bc 7b98 abbb
00000160: 754c 723d 8fd3 5abd 9602 9abd 9d79 8fbc
00000170: 3776 b6bc 5382 67bd 7f58 703d cb77 33bc
00000180: 1e51 b8bd d705 20bd cfdf 2ebd 114a 9f3d
00000190: 403d 0fbc b26c 8c3d dc19 1ebc fd2e cdbc
000001a0: 381e 8fbd 1720 9c3c 0a37 8f3d d6f3 4abd
000001b0: 4821 033d 7fac 2d3d d5d4 0dbd 2b0e a6bd
000001c0: ad69 883d 1a16 38bd 4247 60bd 64cc bf3a
000001d0: 4bad 65bd 5373 21bd b7c0 a33c 36aa ac3d
000001e0: e5bb 17bd 5469 b43c 6a13 cc39 a433 7f3d
000001f0: 4c71 6fbd 553e 2ebd fbbc e5bb 473f d4bc
00000200: c851 9e3d 2f33 423c 468f 2f3d 1952 c0bc
00000210: 9b2c 96bd c235 b93d cd5e 8ebd 1443 a4bd
00000220: 3599 e63c 1cfe 9ebd fba3 abbd 15a5 803d
00000230: 2c5c 7b3d 94ef a4bc 0731 a43c 822f 6e3d
00000240: dc98 58bd ba57 a3bd 92db d73c 2f8f 243d
00000250: fb3e adbc 856c e0bc c718 c23d b205 7a3d
00000260: 3a2c 39bd a649 d0ba 2385 d03c 7b12 17bb
00000270: e1bb 373d f1ad 883d 263d 0c3d f96d 1b3c
00000280: b510 113c f426 7c3d c131 8b3d 1f92 093d
00000290: 3369 6a3d 9c03 71bd a949 4abd d5f6 babd
000002a0: c71c 633d 6645 67bc 559a d4bc e8bf 6b3d
000002b0: 1311 2c3b f9ea 4fbd 49e1 cabd 08cc e43d
000002c0: c0ad 3e3d 45ed 15bc 2034 513d dca6 443d
000002d0: 245a 0e3d cd4b 45bc f32e 8abc 5807 aa3d
000002e0: 929a 1e3d 50a5 ca3d 289d a23d e908 ee3b
000002f0: c134 1d3d b86b 103d 61d3 533d b986 603d
00000300: 4629 5ebd 9342 493c b075 903d 383b 6cbd
00000310: ee20 733c be75 1f3d 60a6 2ebd 4137 88bd
00000320: 2dcc 8c3d ebfb a1bd 837f 5ebd 3db8 b23a
00000330: 7cc5 143d 80ea b83d 8aa8 c4bc 15ba 14bc
00000340: 41fc 2c3d 9810 b9bd 4506 0dbd ceab 9f3d
00000350: a844 983c 869f 7e3d 0b01 083a f147 a8bd
00000360: 2858 cbbc f8c7 b53c dc5c b43c 227c 583d
00000370: 8a7b 83bd 9689 983d 37eb 92bc b3d7 a4bd
00000380: 24a4 673d 9917 2a3d 85c4 b9bc 4447 b1bc
00000390: 38aa 88bc 1754 48bd f286 6ebd c6a7 b8b9
000003a0: 08b8 febb 5bce 21bd 36e8 3abd e1c2 023d
000003b0: b6db a53c f9e0 96bd 17a4 993d 1c4e ca3d
000003c0: bf44 063d 4b58 81bd 2cc6 6a3d 2207 93bd
000003d0: db3d 9dbd 720f 6d3d a595 433c 7dbb a13d
000003e0: ad14 1abd b34e 143c 6ecb 0c3d 5110 cdbd
000003f0: 8f0d 1dbd 02ae 1dbd cdb7 b13d 3ddc 24bd

bias f4 [10]
-0.016683124 -0.0010924919 -0.032195207 -0.035586096 -0.11217541 0.054076277 -0.01075685 0.025984038
-0.00034752517 -0.052987702
00000000: 0cab 88bc f231 8fba 1fdf 03bd bac2 11bd
00000010: 39bc e5bd 167f 5d3d 803d 30bc 7adc d43c
00000020: 0a34 b6b9 a209 59bd

weight f4 [15, 10, 5, 5]
0.020340713 -0.0105879605 -0.08052431 -0.012801067 0.004542481 -0.0009955148 -0.09639665 -0.030003827
-0.023752008 0.011380086 -0.09172755 -0.0056470307 0.017406406 0.024058621 0.00858173 -0.007320508
-0.0653206 -0.013280876 0.020861147 0.082936235 -0.00453579 -0.039482363 -0.013141258 0.012946796
0.03719229 -0.024793027 -0.019532673 -0.009574763 -0.024279077 0.028643107 -0.012603542 0.05829352
0.04672183 -0.020312104 0.034521077 -0.017427247 -0.0117957285 -0.028124865 0.049857784 0.08809635
-0.05285703 -0.05269264 0.008806426 0.010180401 0.117414005 -0.07002933 0.06278453 0.01008317
0.07672386 0.12864709 -0.0014116948 0.062931545 -0.0036695185 -0.025797708 0.013979381 -0.038974673
0.021893548 0.038474586 0.05252136 0.067696266 0.06979175 0.06907196 0.00064531626 0.06859557
0.07428597 0.031431917 0.020515664 0.0013588791 0.0067741396 -0.039390434 0.028319694 -0.0013297909
0.07309181 0.05418385 -0.0097617945 -0.0026306927 0.064318605 0.06836321 0.058539495 -0.035784017
0.072915405 -0.0154609205 0.034775894 0.05851054 0.08148213 -0.007391203 0.057254437 0.054403286
0.047353946 0.055219553 0.01808608 0.07004513 -0.013959419 0.068949774 -0.005138292 0.045618534
-0.00628091 0.011169773 0.04239561 0.048400905 0.06737101 0.058326967 -0.01993479 0.011779854
0.0010990388 0.020524144 0.073046714 0.039579093 0.059612904 -0.020747922 0.045076024 0.021548701
0.028824748 0.022351906 0.04679695 0.037166245 0.06574611 0.084897995 0.069559276 -0.007997487
0.07479267 0.013714888 0.057919785 0.059297893 0.021494634 0.034664497 0.06668352 0.015785003
-0.03899843 0.04671344 -0.036373936 0.065842785 0.033343595 0.058029983 -0.0130610885 0.017208347
-0.011153933 -0.021882584 0.059077457 0.017077124 0.072700575 -0.006130263 0.04571974 0.041123927
-0.03211188 0.050788965 0.053186245 0.047384594 0.020452026 -0.0011948971 -0.0006955466 -0.011612345
0.046432994 0.024878487 -0.008306961 -0.0059247366 0.0066114143 0.0016953255 0.019009568 0.0022504996
0.06234944 0.034387782 0.0026170267 0.0117459465 0.065583795 0.042732075 -0.017456612 0.028870944
0.05490716 0.085301496 0.08518951 -0.0142116835 -0.036813233 0.030992638 -0.029741589 -0.107117705
-0.05899753 -0.0149036655 -0.07698621 -0.11245975 -0.07104293 -0.13961802 -0.060971648 -0.13194019
-0.060348123 -0.12749885 -0.13504668 -0.013074232 -0.039365232 -0.09868494 -0.13138181 -0.032996785
-0.0430523 -0.068136014 -0.053537935 -0.04693121 -0.1259823 -0.10294415 -0.07669832 -0.030966656
-0.11501805 -0.10994643 -0.108612254 -0.10073381 -0.03864574 -0.020699436 -0.030018523 -0.06540219
-0.006922118 -0.061075423 -0.00015096569 -0.09961318 -0.0629784 -0.021301154 -0.06148083 -0.096162714
-0.09127596 -0.10999374 0.010542769 -0.055875864 -0.120700546 -0.026991388 -0.0807543 -0.014729651
-0.04148254 0.024528023 -0.013559765 0.06616184 0.006908967 0.066795155 0.011788615 0.03052587
0.018915895 0.046138834 -0.007087343 0.07047654 -0.017178232 0.08717624 0.009183919 0.024925014
0.044613276 -0.028679412 0.0708658 -0.0077066803 -0.01868847 0.057632502 0.06767745 -0.018852837
0.04932284 0.030957624 0.10840745 0.05355648 0.009306796 0.038551666 0.08615266 0.08960404
00000000: 91a1 a63c 2079 2dbc eee9 a4bd 91bb 51bc
00000010: 18d9 943b ef7b 82ba 9b6b c5bd 96ca f5bc
00000020: 9293 c2bc 8a73 3a3c a7db bbbd ba0a b9bb
00000030: e197 8e3c 9616 c53c 629a 0c3c dfe0 efbb
00000040: cfc6 85bd 0898 59bc ffe4 aa3c 79da a93d
00000050: f7a0 94bb 42b8 21bd 6e4e 57bc cc1e 543c
00000060: f156 183d bf1a cbbc fc02 a0bc 77df 1cbc
00000070: eae4 c6bc f3a4 ea3c 167f 4ebc 30c5 6e3d
00000080: 645f 3f3d 9265 a6bc f965 0d3d 96c3 8ebc
00000090: df42 41bc 1e66 e6bc ad37 4c3d dc6b b43d
000000a0: 9d80 58bd 3dd4 57bd d448 103c b2cb 263c
000000b0: c176 f03d 8a6b 8fbd 2d95 803d e133 253c
000000c0: 6621 9d3d 10bc 033e 9e08 b9ba 41e2 803d
000000d0: 4e7c 70bb b755 d3bc c609 653c e8a3 1fbd
000000e0: 195a b33c 8797 1d3d a320 573d 57a4 8a3d
000000f0: faee 8e3d 9a75 8d3d 712a 293a d67b 8c3d
00000100: 3e23 983d c1be 003d 7710 a83c 6b1c b23a
00000110: 9af9 dd3b dd57 21bd b4fe e73c 614c aeba
00000120: 29b1 953d e2ef 5d3d efef 1fbc b367 2cbb
00000130: 79b9 833d 0302 8c3d 1cc7 6f3d 4392 12bd
00000140: ac54 953d cd4f 7dbc 2b71 0e3d bfa8 6f3d
00000150: 1ae0 a63d e831 f2bb a183 6a3d fbd5 5e3d
00000160: 36f6 413d e62d 623d 4229 943c d273 8f3d
00000170: 0cb6 64bc 8a35 8d3d 1e5f a8bb 80da 3a3d
00000180: 18d0 cdbb 6c01 373c 05a7 2d3d 0740 463d
00000190: d0f9 893d 42e8 6e3d 494e a3bc 4a00 413c
000001a0: 9f0d 903a 4022 a83c 8499 953d b01d 223d
000001b0: a92c 743d 8cf7 a9bc a3a1 383d e786 b03c
000001c0: e121 ec3c 581b b73c 29ae 3f3d a23b 183d
000001d0: e6a5 863d 00df ad3d 1875 8e3d e407 03bc
000001e0: e62c 993d 69b4 603c 4c3d 6d3d 59e2 723d
000001f0: 8415 b03c 5cfc 0d3d 5f91 883d 8d4f 813c
00000200: d1bc 1fbd 9856 3f3d d6fc 14bd 95d8 863d
00000210: 4b93 083d d9b0 6d3d 2dfe 55bc 85f8 8c3c
00000220: fcbe 36bc 1b43 b3bc 34fb 713d 53e5 8b3c
00000230: 0ae4 943d 60e0 c8bb 9f44 3b3d 9071 283d
00000240: bf87 03bd 1708 503d d2d9 593d 5916 423d
00000250: 028b a73c 189e 9cba 5855 36ba b541 3ebc
00000260: 8630 3e3d f8cd cb3c eb19 08bc 4b24 c2bb
00000270: 90a4 d83b af35 de3a f4b9 9b3c 1e7d 133b
00000280: 2062 7f3d 34da 0c3d 6c82 2b3b 1272 403c
00000290: cc50 863d d407 2f3d 2b01 8fbc c282 ec3c
000002a0: 55e6 603d 8db2 ae3d d677 ae3d 1fd8 68bc
000002b0: 79c9 16bd 46e4 fd3c a2a4 f3bc 8760 dbbd
000002c0: 65a7 71bd 812e 74bc f2aa 9dbd 4c51 e6bd
000002d0: f57e 91bd 07f8 0ebe 68bd 79bd 541b 07be
000002e0: 982f 77bd 0f8f 02be ad49 0abe 4e35 56bc
000002f0: 703d 21bd 541b cabd f488 06be a327 07bd
00000300: 9c57 30bd e58a 8bbd 984a 5bbd f13a 40bd
00000310: 8101 01be 62d4 d2bd 0214 9dbd c9ad fdbc
00000320: 958e ebbd 982b e1bd 1a70 debd 874d cebd
00000330: ff4a 1ebd dd91 a9bc 68e9 f5bc 95f1 85bd
00000340: efd2 e2bb 392a 7abd 8b4c 1eb9 ff01 ccbd
00000350: d2fa 80bd c27f aebc 53d3 7bbd f5f0 c4bd
00000360: e4ee babd 6644 e1bd 94bb 2c3c 17de 64bd
00000370: d931 f7bd 0b1d ddbc 8362 a5bd a254 71bc
00000380: 99e9 29bd feee c83c c729 5ebc dc7f 873d
00000390: 9e64 e23b e6cb 883d 0925 413c 6411 fa3c
000003a0: 82f5 9a3c 13fc 3c3d f13c e8bb 0156 903d
000003b0: 5db9 8cbc 7589 b23d 2678 163c 8b2f cc3c
000003c0: 69bc 363d 16f1 eabc 1722 913d 5288 fcbb
000003d0: 9018 99bc 0f10 6c3d 7a9a 8a3d 4471 9abc
000003e0: bf06 4a3d d89a fd3c ba04 de3d 0a5e 5b3d
000003f0: 887b 183c 5ae8 1d3d ce70 b03d 5382 b73d

bias f4 [15]
-0.078706376 0.07277974 0.07031773 0.016530866 -0.05725363 0.039736696 0.011396009 -0.060494006
0.035733726 0.025901956 -0.009564783 -0.042490993 -0.04866299 -0.005464381 0.00049971335
00000000: cf30 a1bd 8b0d 953d be02 903d bd6b 873c
00000010: c882 6abd f2c2 223d 53b6 3a3c 90c8 77bd
00000020: 875d 123d 5730 d43c 9cb5 1cbc 090b 2ebd
00000030: d852 47bd 8d0e b3bb 32ff 023a

weight f4 [25, 15, 3, 3]
-0.06035029 -0.08689954 0.018031359 -0.035018362 0.024953047 0.059633944 0.06855512 -0.05958016
0.028338263 0.09537191 -0.026183615 0.087041475 -0.0052027376 -0.003979309 0.0032420782 0.07261496
0.09792683 0.04142632 0.080609635 0.0051073744 0.08458235 0.052270576 -0.020381032 0.052635126
0.113802224 0.044001337 -0.025780654 0.01853751 0.040804245 -0.023540586 0.030831289 0.09365348
0.024653487 -0.01869382 -0.05510901 0.016641015 -0.042874932 -0.07798006 -0.07929788 -0.0926385
-0.020637706 -0.055291273 0.079421625 0.0647552 -0.06062397 -0.03697557 0.04257859 0.08003792
0.049006447 -0.054074537 0.04403338 0.015381081 0.089653306 0.032020383 -0.08306304 -0.06076847
0.09004171 0.07769183 0.040525466 0.073577814 -0.052045017 -0.016734557 0.019471494 -0.028863993
-0.06885072 0.020281583 0.009282149 -0.03298623 0.07476612 0.07056871 0.07565575 -0.053391118
-0.034580536 -0.050302707 0.05920413 -0.038815375 0.012580049 -0.041917007 -0.02668234 -0.0057682726
0.081484996 -0.03655126 0.0089764455 0.032498844 -0.041626196 0.10054379 0.06395397 -0.006075278
-0.039569 0.03478687 0.008903146 0.0066899736 -0.03512478 -0.028986948 0.08778004 -0.040154584
-0.05100303 0.006046856 0.050504565 -0.0783509 -0.038589433 -0.08132157 0.06386172 0.005681625
-0.016042624 0.042424295 -0.045038767 0.03041298 -0.090089746 -0.009695573 0.069007345 -0.03584058
-0.045043387 0.084776856 0.059882395 0.0767294 0.06186001 0.0431804 -0.007844053 0.019365035
0.018479982 -0.031443954 0.026186794 0.030705666 0.09210777 0.027946094 0.026210478 -0.009057674
0.08880497 -0.07845753 0.04310653 -0.004759486 -0.005066671 -0.009578773 0.08285168 -0.034992054
0.059778422 0.079887725 0.06430077 -0.05007743 0.033539563 0.052140206 0.06729581 -0.026902394
-0.058602452 -0.00066980114 -0.010867648 -0.03316192 0.028261315 -0.11901766 -0.104140036 -0.03702219
-0.11230371 -0.081838116 0.042503282 -0.087292574 -0.07648041 -0.053089768 -0.011827595 -0.0067569846
0.03427425 0.039478008 0.09633745 0.14399251 0.113992155 -0.0027982662 0.11322307 0.053999394
0.0691913 0.08318867 0.07331318 0.058027007 0.050790817 0.06541508 0.023010857 0.07526299
0.100149386 -0.04084798 0.0040187687 0.05376999 -0.013846566 -0.03621802 -0.07279533 -0.10379181
-0.09192015 -0.11655023 -0.06644895 0.0015572786 -0.04606728 0.07474005 -0.0465984 -0.020621497
0.04245004 -0.022589197 0.013720494 -0.011170559 0.045639228 -0.062063873 -0.06201518 0.0151220625
0.059538256 -0.02419473 -0.026244937 0.008324098 0.03382059 -0.0009434033 -0.030212037 0.0028530706
0.04058157 0.015294394 0.02116352 0.06486929 0.093715355 0.0535139 0.08203211 0.005037132
0.055067107 0.0047838083 0.028788581 0.13502564 0.15342137 0.058499474 0.13870938 0.05832221
0.13129427 0.020106418 -0.0054966724 -0.06844168 -0.0126424795 0.08836226 -0.039853483 0.059524637
0.05256646 0.023537355 -0.03326459 0.008360918 0.0695863 0.042233445 0.047160782 -0.048383858
0.09752992 0.028345864 0.016341263 0.026279816 -0.0584845 -0.03092943 0.024047771 -0.057703357
0.003356623 0.046614047 -0.0339851 0.10120553 0.03913179 -0.015968475 -0.03166255 0.100145645
00000000: de31 77bd 63f8 b1bd 80b6 933c 6a6f 0fbd
00000010: 556a cc3c b942 743d a066 8c3d 530a 74bd
00000020: a525 e83c 5952 c33d 057f d6bc cd42 b23d
00000030: ba7b aabb dd64 82bb 0c79 543b 27b7 943d
00000040: dd8d c83d a5ae 293d aa16 a53d c35b a73b
00000050: 8339 ad3d ac19 563d 1ff6 a6bc ee97 573d
00000060: 2411 e93d bf3a 343d f331 d3bc fadb 973c
00000070: 5a22 273d 30d8 c0bc e691 fc3c 65cd bf3d
00000080: 1cf6 c93c c823 99bc fcb9 61bd bd52 883c
00000090: a09d 2fbd 02b4 9fbd ed66 a2bd 41b9 bdbd
000000a0: 6810 a9bc 1a79 62bd cea7 a23d 609e 843d
000000b0: d750 78bd b273 17bd e366 2e3d ecea a33d
000000c0: fcba 483d 437d 5dbd 585c 343d ee00 7c3c
000000d0: 279c b73d ce27 033d f51c aabd 5ce8 78bd
000000e0: ca67 b83d e51c 9f3d 08fe 253d f7af 963d
000000f0: 282d 55bd e916 89bc af82 9f3c 2e74 ecbc
00000100: 9b01 8dbd 9025 a63c 2814 183c 921c 07bd
00000110: fb1e 993d 5486 903d 67f1 9a3d a5b0 5abd
00000120: 52a4 0dbd 360a 4ebd 0880 723d dffc 1ebd
00000130: 8d1c 4e3c 2bb1 2bbd ec94 dabc c703 bdbb
00000140: 9be1 a63d c6b6 15bd f111 133c 821d 053d
00000150: 3b80 2abd e7e9 cd3d 4dfa 823d 2013 c7bb
00000160: 1b13 22bd ad7c 0e3d 80de 113c 9137 db3b
00000170: 00df 0fbd 0976 edbc 06c6 b33d 2279 24bd
00000180: 8ee8 50bd b424 c63b e0dd 4e3d 7076 a0bd
00000190: f40f 1ebd ec8b a6bd efc9 823d ed2c ba3b
000001a0: d26b 83bc 19c5 2d3d 927a 38bd a424 f93c
000001b0: f980 b8bd 2eda 1ebc b953 8d3d 92cd 12bd
000001c0: 6a7f 38bd 7d9f ad3d 3e47 753d 4e24 9d3d
000001d0: ec60 7d3d eedd 303d 5884 00bc 6ca3 9e3c
000001e0: 5563 973c 60cb 00bd b085 d63c 738a fb3c
000001f0: 00a3 bc3d 35ef e43c 5bb7 d63c a366 14bc
00000200: 61df b53d 57ae a0bd 7990 303d 76f5 9bbb
00000210: 5106 a6bb 49f0 1cbc 24ae a93d d453 0fbd
00000220: 38da 743d 2d9c a33d 1fb0 833d fe1d 4dbd
00000230: c860 093d f890 553d 63d2 893d 6962 dcbc
00000240: 2009 70bd 9895 2fba 380e 32bc cbd4 07bd
00000250: 4684 e73c 88bf f3bd 5f47 d5bd 94a4 17bd
00000260: 7dff e5bd be9a a7bd ec17 2e3d 73c6 b2bd
00000270: c3a1 9cbd a874 59bd 87c8 41bc b269 ddbb
00000280: 2863 0c3d b1b3 213d 924c c53d c672 133e
00000290: b874 e93d 1e63 37bb 7fe1 e73d 782e 5d3d
000002a0: 2bb4 8d3d d25e aa3d 3825 963d baad 6d3d
000002b0: 080a 503d 57f8 853d 4481 bc3c 7c23 9a3d
000002c0: 1f1b cd3d 3650 27bd e0af 833b ec3d 5c3d
000002d0: b5dc 62bc 5959 14bd b815 95bd cd90 d4bd
000002e0: a240 bcbd e3b1 eebd 6316 88bd 991d cc3a
000002f0: 0bb1 3cbd 5011 993d f7dd 3ebd 6aee a8bc
00000300: 18e0 2d3d fb0c b9bc eccb 603c b804 37bc
00000310: 33f0 3a3d b036 7ebd a103 7ebd 87c2 773c
00000320: 63de 733d 0734 c6bc 9fff d6bc cc61 083c
00000330: 7587 0a3d b94e 77ba 3c7f f7bc 95fa 3a3b
00000340: dc38 263d 5795 7a3c 1e5f ad3c 31da 843d
00000350: d6ed bf3d 6431 5b3d 7300 a83d 870e a53b
00000360: 0c8e 613d 7ec1 9c3b 08d6 eb3c 2944 0a3e
00000370: 7e1a 1d3e 259d 6f3d d509 0e3e 45e3 6e3d
00000380: 0172 063e 37b6 a43c 6e1d b4bb 272b 8cbd
00000390: 6722 4fbc 46f7 b43d 683d 23bd 1bd0 733d
000003a0: ee4f 573d 69d1 c03c 7340 08bd 3bfc 083c
000003b0: 4383 8e3d fafc 2c3d aa2b 413d 272e 46bd
000003c0: c4bd c73d 9635 e83c 1dde 853c c548 d73c
000003d0: 718d 6fbd b75f fdbc d5ff c43c 5b5a 6cbd
000003e0: cafa 5b3b 5fee 3e3d f633 0bbd d844 cf3d
000003f0: a848 203d 52d0 82bc 97b0 01bd 2919 cd3d

bias f4 [25]
0.06969737 -0.079656 -0.061970934 -0.04628977 -0.08536696 -0.05386324 0.064552814 -0.021560015
0.08083371 0.0036318658 0.029173357 -0.06793137 -0.0813423 0.03237189 0.056390196 0.062461525
0.02893693 -0.002265832 0.08784949 -0.030402558 0.0049081254 -0.050111104 0.06460281 -0.028495558
0.015114099
00000000: 7fbd 8e3d af22 a3bd 3cd5 7dbd 589a 3dbd
00000010: dfd4 aebd b39f 5cbd 4434 843d a19e b0bc
00000020: 258c a53d 9904 6e3b f7fc ee3c 9a1f 8bbd
00000030: cb96 a6bd 6398 043d 68f9 663d a8d7 7f3d
00000040: 240d ed3c 5a7e 14bb 6fea b33d c90e f9bc
00000050: 57d4 a03b 4d41 4dbd 7a4e 843d 846f e9bc
00000060: 20a1 773c

weight f4 [10, 15625]
-0.0017466086 0.0021812876 -0.005163486 0.004709483 0.004906144 0.0017854419 0.004719532 -0.0050859647
-0.0011552084 -0.0038670097 -0.0020037221 -0.0036661916 -0.008368291 -0.004156533 0.0028521814 0.0020699298
-0.0045579593 0.0013283427 -0.0069555747 0.003103835 -0.007658592 -0.0081911795 0.0018414157 -0.005112824
0.002515711 0.0022119496 -0.0068280436 0.0072356584 -0.0020208352 0.006146805 0.0023576124 0.0065443953
-0.003993394 -0.001074493 0.0043191 -0.0046144873 -0.005020304 0.004302246 0.0025137747 0.005766942
0.0029895247 0.0023024976 0.006720686 -0.0007947843 0.0038690108 -0.006156513 0.006307266 -0.0027455639
0.0007941658 -0.00644922 0.006389284 -0.0071906364 -0.0027418628 -0.006940333 0.0009166328 0.00043050057
-0.007188607 -0.005450086 0.0025672968 -0.0021492762 -0.0044262516 -0.0063480414 -0.0022905816 0.0024361475
-0.0006702965 -0.0060113305 -0.0026370892 -0.0059739873 0.0012003435 -0.00050306006 -0.004417399 0.002856222
0.007174034 0.00065980083 -0.0056109126 0.0064593344 -0.006646132 -0.000478846 -0.0027438502 -0.0071296375
0.0067999926 0.003785506 -0.00819936 0.0073598647 0.0007775809 0.00015453646 -0.0046605924 0.0048906077
0.004486045 -0.003239459 0.004158306 -0.0036424638 0.0066770893 0.006338481 0.0009133788 0.002556407
0.004524664 -0.0073814867 0.001746015 -0.0047646095 0.0046027433 0.0056098173 0.005231615 0.00029754126
0.0020588273 0.0020271137 0.003464348 -0.0074971444 0.0028984095 -2.3751238e-05 0.0055002584 0.0061009545
-0.0062927506 -0.0047692964 0.007198374 -0.0014493051 -0.0026001816 -0.0062336726 0.0008371071 -0.0064549795
0.00038400976 -0.007470314 0.0011574671 0.004725168 -0.0077803833 0.00075677317 -0.0031662688 -0.0021130347
0.0005131782 0.0044562137 0.0049740695 -0.006826779 0.00034437634 -0.0043742396 -0.0068831313 0.0062486106
0.0057061072 0.0071848948 0.0019278867 -0.0042113587 -0.006513091 -0.0061309584 -0.0014388195 -0.0005575406
0.0038246298 -0.0038584599 -0.0039059983 0.0047870427 0.0040334635 -0.0004958768 0.0065812245 0.0039866306
-0.0038260464 0.0036364805 0.0020832806 0.0055325124 -0.0049005034 0.005084548 -0.0034584333 0.005714426
-0.0071212677 0.005407397 -0.00016086781 -0.0076387944 0.0056854705 -0.0047774874 0.0031207125 0.0036146515
-0.007377342 -0.0056690485 -0.002471272 -0.0046475064 -0.007854024 0.004842641 -0.00056833803 -0.00024957728
0.004507143 0.0010037253 0.0071743233 -0.00073984225 -0.0047618323 0.0065291408 0.00638282 -0.0004520737
-0.0004359648 0.00088297616 -0.0048962594 0.0021907683 -5.759889e-05 -0.008099212 -0.003006781 -0.002561842
0.0002758104 0.0058166534 -0.0040784236 0.003439531 -0.006142718 0.0048349113 0.00036702887 0.0067539485
0.006201479 0.000526584 -0.0038867134 0.0043408964 -0.00042029005 -0.00834029 0.0012421528 0.006161807
0.0045412043 -0.0078340955 -0.0027279097 -0.008054101 0.000102034166 0.0071431343 -0.00050170516 0.00045469092
-0.0028453865 -0.0019432566 0.005669378 0.0065051066 -0.0027889458 0.0016833207 0.0053594406 -0.0010037638
-0.0023746348 -0.0011040161 -0.00017926372 -0.00021679453 -0.008406664 -0.0071476153 -0.007923607 -0.0005505319
0.005831173 0.0035184263 -0.0062144916 0.0046765395 -0.0076953573 0.0044729654 0.003232564 -0.00052602735
0.0013965768 0.0050252397 0.0014505577 0.004749505 0.000242581 0.00667011 0.000860652 -0.0078420965
-0.00032472078 -0.0010915952 0.0042900783 -0.0031453145 0.006631519 -0.0009421906 0.005751517 0.0010998799
00000000: 76ee e4ba eff3 0e3b 7632 a9bb 0252 9a3b
00000010: b8c3 a03b 7d05 ea3a 4ea6 9a3b 2aa8 a6bb
00000020: 5d6a 97ba a86d 7dbb e150 03bb 7d44 70bb
00000030: 281b 09bc 8733 88bb aaeb 3a3b a9a7 073b
00000040: ef5a 95bb c91b ae3a 97eb e3bb b669 4b3b
00000050: edf4 fabb 4c34 06bc a85b f13a 7a89 a7bb
00000060: a0de 243b 5bf6 103b c8bd dfbb 1a19 ed3b
00000070: fd6f 04bb 236b c93b 2c82 1a3b 5e72 d63b
00000080: 04db 82bb 01d6 8cba 3d87 8d3b 2035 97bb
00000090: 5d81 a4bb dbf9 8c3b 24be 243b 9ef8 bc3b
000000a0: e7eb 433b 80e5 163b 3339 dc3b 1259 50ba
000000b0: 3b8f 7d3b 93bc c9bb 2fad ce3b ebee 33bb
000000c0: 912f 503a fa53 d3bb 335d d13b 6e9f ebbb
000000d0: d3b0 33bb bc6b e3bb 304a 703a cfb4 e139
000000e0: 688e ebbb a396 b2bb 1840 283b dfda 0cbb
000000f0: 170a 91bb 3b03 d0bb 951d 16bb c6a7 1f3b
00000100: d6b6 2fba b2fa c4bb 04d3 2cbb 70c1 c3bb
00000110: d854 9d3a cadf 03ba d4bf 90bb 742f 3b3b
00000120: 2914 eb3b 7cf6 2c3a bfdb b7bb d3a8 d33b
00000130: ccc7 d9bb 9f0d fbb9 2bd2 33bb bc9f e9bb
00000140: 79d2 de3b 4016 783b 9c56 06bc 052b f13b
00000150: 92d6 4b3a 110b 2239 e2b7 98bb 6441 a03b
00000160: acff 923b 1a4d 54bb 6642 883b 67b6 6ebb
00000170: 7ccb da3b 08b3 cf3b d06f 6f3a 6489 273b
00000180: a243 943b 66e0 f1bb 8bda e43a 7120 9cbb
00000190: 9cd2 963b 8fd2 b73b f86d ab3b 50ff 9b39
000001a0: 64ed 063b 53d9 043b 1d0a 633b 9baa f5bb
000001b0: 3ef3 3d3b 653d c7b7 833b b43b 84ea c73b
000001c0: 6b33 cebb c247 9cbb 56e0 eb3b 9cf6 bdba
000001d0: cf67 2abb d643 ccbb 4e71 5b3a 4b84 d3bb
000001e0: eb54 c939 89c9 f4bb 27b6 973a 95d5 9a3b
000001f0: 96f2 febb 3062 463a 2d81 4fbb d77a 0abb
00000200: ce86 063a 6e05 923b 85fd a23b 2cb3 dfbb
00000210: 698d b439 c855 8fbb e48b e1bb 25c1 cc3b
00000220: 4cfa ba3b 446f eb3b 25b1 fc3a 70ff 89bb
00000230: c46b d5bb 35e6 c8bb c596 bcba eb27 12ba
00000240: a4a6 7a3b 37de 7cbb c7fb 7fbb a0dc 9c3b
00000250: 252b 843b bbfd 01ba 50a7 d73b 48a2 823b
00000260: 68be 7abb 0552 6e3b a687 083b 144a b53b
00000270: 6794 a0bb 489c a63b e2a6 62bb 1440 bb3b
00000280: 8659 e9bb 8930 b13b a0ae 28b9 da4e fabb
00000290: 2f4d ba3b 788c 9cbb de84 4c3b cae3 6c3b
000002a0: a1bd f1bb 6dc3 b9bb 10f5 21bb 1c4a 98bb
000002b0: 2aae 00bc 04af 9e3b 85fc 14ba b2d9 82b9
000002c0: a8b0 933b 6f8f 833a 9616 eb3b f9f1 41ba
000002d0: 2509 9cbb 67f2 d53b fa26 d13b 4e04 edb9
000002e0: 3492 e4b9 8777 673a cd70 a0bb fe92 0f3b
000002f0: 5696 71b8 8fb2 04bc 6a0d 45bb 94e4 27bb
00000300: a59a 9039 a099 be3b 4ca4 85bb c169 613b
00000310: da48 c9bb 2d6e 9e3b c86d c039 3a50 dd3b
00000320: c735 cb3b 740a 0a3a 3bb8 7ebb 143e 8e3b
00000330: 605a dcb9 b6a5 08bc bbcf a23a fce8 c93b
00000340: 62ce 943b 945a 00bc bbc6 32bb 59f5 03bc
00000350: 2dfb d538 f410 ea3b dd84 03ba 9563 ee39
00000360: aa79 3abb dfb4 feba 31c6 b93b ca28 d53b
00000370: bfc6 36bb dfa2 dc3a 3f9e af3b b990 83ba
00000380: c39f 1bbb a2b4 90ba bdf8 3bb9 5753 63b9
00000390: 1bbc 09bc 8b36 eabb 04d2 01bc 9251 10ba
000003a0: 6d13 bf3b 6695 663b efa2 cbbb a83d 993b
000003b0: 5629 fcbb f491 923b 6dd9 533b 19e5 09ba
000003c0: 570d b73a c4aa a43b a420 be3a bca1 9b3b
000003d0: 575d 7e39 f090 da3b 619d 613a 237c 00bc
000003e0: 493f aab9 db13 8fba c993 8c3b 9f21 4ebb
000003f0: 374d d93b 57fd 76ba 3977 bc3b d829 903a

bias f4 [10]
-0.008128941 0.0047748517 -0.0013053453 0.008015361 -0.00073358766 0.0050512967 -0.008709715 0.002099969
-0.010208151 -0.004056819
00000000: 402f 05bc 5c76 9c3b 1f18 abba dc52 033c
00000010: 3c4e 40ba 5985 a53b 31b3 0ebc a29f 093b
00000020: 1740 27bc 10ef 84bb

weight f4 [2, 10]
-0.017027173 -0.10311144 0.2590999 -0.2821627 0.13016982 -0.16136773 0.025837624 0.2729371
0.023259826 0.33161536 0.16979417 -0.31547266 0.25861704 -0.004434795 0.10789263 0.19286548
0.043584764 0.11679137 -0.32597968 0.11826808
00000000: 927c 8bbc 172c d3bd bea8 843e a177 90be
00000010: 3d4b 053e 953d 25be 6da9 d33c 69be 8b3e
00000020: 648b be3c 7dc9 a93e 86de 2d3e a285 a1be
00000030: 7469 843e c251 91bb d0f6 dc3d 877e 453e
00000040: f085 323d 5030 ef3d cfe6 a6be 8936 f23d

bias f4 [2]
-0.09931052 0.10030864
00000000: 5063 cbbd 9e6e cd3d
